web-interface/combinations/esc/bea-exp-2-3/models/model.pt (torch, 2471 bytes, 1 tensors)

linear.weight f4 [1, 108]
00000000: bd24 57be 3a3f 6f3f 7534 173e bd57 62be
00000010: 2980 9e3f d09e 1fbf fe3f 923f 4b05 153e
00000020: 113a 2c3f 1f75 943f a233 a13f a60f ab3f
00000030: fa75 5c3f 9b27 d13f 3079 803f ed88 913f
00000040: f2ff ad3f fa16 2c3f 230e a33e e5ac 863f
00000050: 7bb3 c53f 4c58 d33f fcbb 953f e256 8f3f
00000060: d5b0 c73f 3ca1 b93f fab2 913f 1659 8c3f
00000070: 4e82 b43f 227e b33f 9d13 453f e96d ba3f
00000080: c4d2 2f40 dc2d ae3f ef9a be3f 9339 823f
00000090: c7c0 a83f d33a d03f 5de5 a33f 43c7 15bd
000000a0: 685f aa3f 2779 813f 38e3 cd3f 288f c83f
000000b0: d38f a63f c108 683f b58a 4b3f 7268 643e
000000c0: af2a 863f ae64 0b40 918c a03f 43ba db3f
000000d0: 51a5 493f 9c2b f93f 4f13 213f 1147 e63d
000000e0: 7d7c 713e e2c9 98bd debe a33f 5854 0abe
000000f0: 0f2b 9d3f c579 c43f 6c60 083e 9e4a 7f3f
00000100: a0a9 3f3f 82f8 c83f 93d8 603f 5296 443f
00000110: 3944 4e3f 7531 633f 0b2b 0ebe e4d2 a13f
00000120: ccaa fcbd f06e 873f c64e 943f 94c1 613f
00000130: dfe3 333f 8912 173e 6e7a 853f af2a 9cbe
00000140: f43a c63f 62d7 e53e c282 a63f aea4 993f
00000150: 9adf ac3f 5c21 7a3f d7e1 a13f 14dc a43f
00000160: f9ff 803f d0af 1c3f 134a a03f 7ea5 573f
00000170: 61d8 983f 9a2f 04bf 434b 21bf fee7 0b3f
00000180: cc27 123f a855 883f bb33 103f 9381 2e3f
00000190: f2dc 833d 7291 123f 2334 bd3f 5fd7 5c3f
000001a0: 7583 063f 19b4 d03e c3aa 333f b9d7 cf3e
-0.21010108 0.9345585 0.14766105 -0.22103782 1.2382861 -0.62351704 1.1425779 0.145528
0.672761 1.1598243 1.2593882 1.336415 0.8611752 1.6340212 1.0036983 1.1369911
1.3593733 0.6722256 0.31846723 1.0521513 1.5445398 1.6511321 1.1697993 1.119839
1.560084 1.450233 1.1382744 1.0964687 1.4102266 1.4022868 0.7698305 1.4564792
2.747239 1.3607745 1.4891032 1.017382 1.3183831 1.6267952 1.2804371 -0.036566984
1.3310366 1.0115098 1.6084967 1.5668688 1.3012642 0.9063836 0.79508525 0.22305468
1.0481776 2.17802 1.2542897 1.7166218 0.7876788 1.9466434 0.6292009 0.112440236
0.23582645 -0.07460381 1.2792623 -0.13508737 1.2278765 1.5349661 0.13318032 0.9972323
0.748682 1.5700839 0.87830466 0.7679187 0.8057285 0.8874734 -0.13883607 1.2642484
-0.123372644 1.058073 1.158654 0.88186 0.7026958 0.14753164 1.0427988 -0.30501315
1.5486741 0.44890887 1.3008654 1.2003381 1.3505738 0.9770715 1.2647046 1.2879663
1.0078117 0.6120577 1.2522606 0.84236896 1.1941034 -0.51635134 -0.63005465 0.54650867
0.57091975 1.065114 0.56328934 0.68166465 0.06438626 0.5725318 1.4781536 0.8626613
0.5254434 0.40762404 0.70182437 0.4059427
