web-interface/combinations/esc/bea-exp-1-2-3/models/model.pt (torch, 2791 bytes, 1 tensors)

linear.weight f4 [1, 162]
000000 82 60 05 bc b0 48 8c 3f e9 1e 84 3e 94 c0 26 be
       -0.008140685 1.0959682 0.25804833 -0.162844
000010 3a a0 95 3f 39 5d bc be b4 cd 76 3f c1 c0 4b 3e
       1.1689522 -0.36789873 0.9640763 0.19897749
000020 5d 1c 35 3f aa d0 84 3f 11 ab 97 3f fa dc ae 3f
       0.70746404 1.0376179 1.184908 1.3661187
000030 51 52 65 3f e1 67 bc 3f fd c5 88 3f 8b 9f 8f 3f
       0.8957873 1.4719201 1.0685421 1.1220564
000040 c5 12 9c 3f f2 52 69 3f 5f 4b a0 3e 4e 01 86 3f
       1.2193228 0.9114219 0.31307504 1.0469148
000050 58 d7 b7 3f 7f 80 dc 3f 9c c4 a2 3f 24 15 8c 3f
       1.4362593 1.7226714 1.271625 1.0943952
000060 ed 2b c2 3f 8f c1 cd 3f b8 32 9a 3f e8 1c 93 3f
       1.5169655 1.6074694 1.2046728 1.1493196
000070 ea ca 9b 3f be 98 b4 3f 44 a1 3b 3f 55 0c b0 3f
       1.21713 1.4109113 0.73292947 1.3753763
000080 21 2f 3a 40 ba c2 bd 3f d5 53 af 3f 6a cb 83 3f
       2.9091265 1.4825051 1.3697459 1.0296452
000090 02 85 b1 3f 99 05 d4 3f 88 bd ba 3f a4 33 74 3d
       1.3868716 1.6564208 1.458909 0.05961956
0000a0 54 55 b2 3f b4 6c 6d 3f ae 28 b8 3f b0 02 c5 3f
       1.393229 0.9274399 1.4387414 1.5391445
0000b0 4f 19 a2 3f a3 d7 59 3f 4a 9a 70 3f bc e4 84 3e
       1.2663974 0.8509466 0.93985426 0.2595576
0000c0 61 42 85 3f 36 8f 00 40 c2 48 9a 3f 06 53 d3 3f
       1.0410882 2.008741 1.2053454 1.6509712
0000d0 ef f3 4e 3f 97 02 06 40 29 88 9d bd 72 21 9e be
       0.80840963 2.093908 -0.07691986 -0.30884892
0000e0 18 ef da 3e b4 80 79 bd c4 9d 64 3f 85 8a a1 be
       0.4276054 -0.060913756 0.8930323 -0.31550995
0000f0 35 a4 62 3f 4c f5 86 3f 86 43 08 3e 39 3a 90 3f
       0.8853181 1.0543609 0.13307008 1.1267768
000100 d3 92 62 3f eb c8 3c 3f 25 86 3c 3f 72 b2 7e 3f
       0.88505286 0.73744076 0.7364219 0.99491036
000110 69 35 ae 3e 2e d0 60 3f 94 0a 81 3f 07 5c 7d be
       0.34025124 0.87817657 1.0081353 -0.24742137
000120 63 f3 fc 3c f0 78 3b 3f ac 50 a2 3f d5 c3 19 3f
       0.030877775 0.7323141 1.2680869 0.6006444
000130 53 56 14 3f 0a 71 cb b9 a9 a8 07 3f 46 c6 11 bd
       0.5794422 -0.00038803398 0.5299173 -0.03558948
000140 66 3d 80 3f e8 38 73 3f cc c1 37 3f c9 d9 0f 3f
       1.0018737 0.9500871 0.71780086 0.5619169
000150 75 bb 2b 3f 5d 86 37 3f d7 0b d8 3e 63 03 cc 3e
       0.6708291 0.716894 0.42196533 0.39846334
000160 6f 34 35 3f 77 48 91 3e 6c 76 91 3e 24 ad e4 3e
       0.7078313 0.283756 0.2841066 0.44663346
000170 a9 c0 4c 3e a4 99 3a be 3e 78 a8 3e a9 d2 3f 3f
       0.19995369 -0.18222672 0.32904238 0.74930817
000180 70 d0 62 3f 99 0c 18 3f 52 34 0c 3f 09 de 69 3e
       0.885993 0.5939422 0.54767334 0.22838606
000190 66 f9 a1 3e 45 dd 80 3e ea fa 63 3f 09 67 5c 3f
       0.31635588 0.25168815 0.8905474 0.8609472
0001a0 90 a8 52 3f 58 c7 5d 3f 5b f4 d3 bd 0c c1 31 be
       0.82288456 0.866323 -0.103493415 -0.17358798
0001b0 85 78 30 3f cf bd aa 3e 23 58 2a 3e c5 f4 3e 3d
       0.689339 0.33347937 0.16635184 0.04662015
0001c0 c8 1f 58 3f ec 75 2d 3d 04 c6 76 3f 41 c6 84 3f
       0.84423494 0.042348787 0.963959 1.0373002
0001d0 65 f8 40 3e 71 7b ff 3e 6f 84 d3 3e c6 cb 9a 3f
       0.18844755 0.49898866 0.41311976 1.2093437
0001e0 5a 70 22 3f a6 77 1e 3f 07 d9 4e 3f 6a eb 45 3f
       0.63452685 0.6190132 0.8079991 0.7731234
0001f0 29 e2 c8 bd 3a b9 b4 3f 61 5b 03 be 66 12 5d 3f
       -0.098087616 1.4119027 -0.12827827 0.863562
000200 d4 4c 1a 3f 10 2c 2c 3f 86 4b 1d 3f 10 f9 9a 3e
       0.6027348 0.67254734 0.61443365 0.30268145
000210 6c 47 63 3f c6 96 10 be 4c cc 81 3f 31 c8 a3 3d
       0.88780856 -0.14120016 1.0140471 0.07997168
000220 76 76 8c 3f a1 74 85 3f f2 dc 90 3f 1e 88 28 3f
       1.0973651 1.0426217 1.1317427 0.658327
000230 85 b0 8b 3f fd c0 a1 3f f5 64 4d 3f 83 1c 1d 3f
       1.0913244 1.263702 0.80232173 0.6137163
000240 58 4d 93 3f 34 cc 35 3f df a3 91 3f 2c 4d c0 be
       1.1507978 0.71014714 1.1378134 -0.37558877
000250 f8 2c df be 52 60 e9 3e e8 52 d3 3e 29 b5 5b 3f
       -0.43588996 0.455813 0.4127419 0.85823303
000260 e6 16 15 3f f1 8f 48 3f 6b 42 3b 3e 64 8f ec 3e
       0.58238065 0.7834464 0.18287055 0.46203148
000270 e4 6f 91 3f 3d 94 1c 3f fe 76 82 3e 0d 3b 7d 3e
       1.1362271 0.61163694 0.2548141 0.24729557
000280 01 7b 46 3f 20 05 26 3f
       0.7753144 0.6485157
