web-interface/combinations/esc/bea-exp-1-3/models/model.pt (torch, 2471 bytes, 1 tensors)

linear.weight f4 [1, 108]
0	0xbd9bf68d	-0.07615385
1	0x3f879643	1.0592731
2	0x3e40139e	0.18757483
3	0xbe5e1eed	-0.21691485
4	0x3fa306da	1.2736466
5	0xbf09bbef	-0.5380239
6	0x3f962d74	1.1732621
7	0x3e6212a8	0.2207743
8	0x3f3dabd9	0.74090344
9	0x3f877779	1.0583335
10	0x3f8f233d	1.1182629
11	0x3fc9da5e	1.5769765
12	0x3f7b8cc2	0.98261654
13	0x3fdc4c2c	1.7210746
14	0x3f946199	1.1592284
15	0x3f9e0157	1.2344159
16	0x3fa09515	1.2545496
17	0x3f8895e0	1.0670738
18	0x3eb19151	0.3468118
19	0x3fa0794b	1.2537016
20	0x3fbdbf37	1.4823979
21	0x3fdb4fcc	1.7133727
22	0x3f9efc3d	1.2420727
23	0x3f9caf63	1.2241024
24	0x3fde9d01	1.7391664
25	0x3fc4544c	1.5338225
26	0x3f9d2bef	1.2279032
27	0x3f857084	1.0424962
28	0x3fb97b78	1.4490805
29	0x3fc95300	1.5728455
30	0x3f55b438	0.83478117
31	0x3fbbf263	1.4683346
32	0x403aa0fb	2.9160755
33	0x3fc80cfb	1.5628961
34	0x3fc592aa	1.5435383
35	0x3f9141d3	1.1348213
36	0x3fcecf29	1.615697
37	0x3fdafd85	1.7108618
38	0x3fbf2a79	1.4934837
39	0xbb324e18	-0.0027207192
40	0x3face389	1.3506938
41	0x3f8147f6	1.0100086
42	0x3fc9f378	1.5777426
43	0x3fd7e61a	1.6867096
44	0x3fae735b	1.3628954
45	0x3f84460b	1.0333875
46	0x3f5dfcf7	0.8671412
47	0x3e928aef	0.28621623
48	0x3f98850f	1.1915606
49	0x400a6c7e	2.1628718
50	0x3f943e82	1.1581576
51	0x3fd48242	1.6602252
52	0x3f71eaa2	0.94498646
53	0x4011fe52	2.2811475
54	0xbd9c2169	-0.0762356
55	0xbedc44d4	-0.43021262
56	0x3eeb4f73	0.45959052
57	0xbd98c9e2	-0.07460381
58	0x3fa57797	1.2927121
59	0xbed40e50	-0.4141717
60	0x3fa135f8	1.2594595
61	0x3fb781a5	1.4336439
62	0x3df98a73	0.1218461
63	0x3fa82c9b	1.3138613
64	0x3f838104	1.0273747
65	0x3fae8a40	1.363594
66	0x3f6b81eb	0.91995114
67	0x3f92755b	1.1442064
68	0x3f278356	0.6543478
69	0x3f85dff6	1.0458972
70	0x3f896e4e	1.0736787
71	0xbd2445d0	-0.04010564
72	0x3d1ae66a	0.037817396
73	0x3f641305	0.8909152
74	0x3fb81ad5	1.4383188
75	0x3f5d3579	0.8640972
76	0x3f384212	0.71975815
77	0xbcfbcbac	-0.030736767
78	0x3f505050	0.8137255
79	0xbe38ef9a	-0.1806015
80	0x3fca20e5	1.5791289
81	0x3f66acdc	0.9010751
82	0x3f8e444d	1.1114594
83	0x3f792210	0.973176
84	0x3f992938	1.1965704
85	0x3f829ab6	1.0203464
86	0x3f7dca68	0.9913697
87	0x3f52150f	0.8206338
88	0x3f7b44e7	0.9815201
89	0x3eb5acd2	0.35483414
90	0x3f5cbab2	0.86222374
91	0x3f411506	0.75422704
92	0x3f0d3da8	0.55172205
93	0xbeacfd6d	-0.337871
94	0x3d933578	0.07187933
95	0x3f5ab17a	0.8542706
96	0x3f7af040	0.9802284
97	0x3f698c79	0.9122997
98	0x3f088f36	0.5334352
99	0x3eb67285	0.35634246
100	0x3e809953	0.25116977
101	0x3e9648a9	0.2935231
102	0x3fa49954	1.2859292
103	0x3f878b31	1.0589353
104	0x3f6cdd92	0.9252559
105	0x3f6951a3	0.9114019
106	0xbe02d5f6	-0.12776932
107	0xbd484bc0	-0.048900366
