web-interface/combinations/esc/bea-exp-1-2/models/model.pt (torch, 2471 bytes, 1 tensors)

linear.weight f4 [1, 108]
0	0xbdf4d8e7	-0.11955433
1	0xbea393a9	-0.31948593
2	0x3db04677	0.0860719
3	0xbd9107db	-0.070815764
4	0x3f87ec68	1.061902
5	0xbe86d5b0	-0.26334906
6	0x3f65aa4c	0.8971298
7	0x3f23d69f	0.6399936
8	0x3d988ae4	0.07448366
9	0x3f948962	1.1604426
10	0x3f6f375f	0.93443865
11	0x3f502479	0.8130565
12	0x3ef4f0bd	0.4783992
13	0x3f6f731d	0.93535024
14	0x3eca143e	0.3946857
15	0x3f2954d1	0.66145045
16	0x3f3645ac	0.7120006
17	0xbe9ef68a	-0.3104747
18	0xbd8599e2	-0.065234914
19	0x3ed03460	0.4066496
20	0x3fa0cfa8	1.2563372
21	0x3f5d0d7b	0.86348695
22	0x3eefea8c	0.46858633
23	0x3d311e86	0.043242
24	0x3f33333a	0.7000004
25	0x3ba44b79	0.00501388
26	0x3f8b294d	1.0871979
27	0x3f62b9bf	0.88564676
28	0x3f68d501	0.9095002
29	0x3f3f1a39	0.7464939
30	0x3f27f6bd	0.6561087
31	0x3f845493	1.033831
32	0x3fbd0423	1.4766887
33	0x3ef84193	0.4848753
34	0x3f743f30	0.95408916
35	0x3dc0b070	0.09408653
36	0x3f2396d8	0.63902044
37	0x3f3dc2f2	0.7412559
38	0x3f0834eb	0.53205746
39	0xbea3216b	-0.31861433
40	0x3d205b0c	0.03914933
41	0x3ef0b1d2	0.47010666
42	0x3f25ff1b	0.64842385
43	0x3f521beb	0.8207385
44	0x3e8657e8	0.26238942
45	0x3daf6e17	0.0856592
46	0x3bc86835	0.006115938
47	0x3ddd0ae2	0.10793091
48	0x3f5cb871	0.86218935
49	0x3f78d08e	0.9719323
50	0x3f745684	0.9544451
51	0x3f4d0e4b	0.80099934
52	0xbdc9f70c	-0.098615736
53	0x3e374ba8	0.17899954
54	0x3e6a494a	0.2287952
55	0xbd37b34b	-0.04484872
56	0x3dc794ff	0.097452156
57	0xbd98c9e2	-0.07460381
58	0x3f867803	1.0505375
59	0xbe686f81	-0.22698785
60	0x3f6e41be	0.93069065
61	0x3f394af8	0.7238002
62	0x3ce5f683	0.028071648
63	0x3f218381	0.63091284
64	0x3ef500a3	0.47852048
65	0x3fbbe8db	1.4680437
66	0x3f1d6cdb	0.61494225
67	0x3f62af13	0.8854839
68	0x3f2da3e7	0.6782822
69	0x3f24abfe	0.6432494
70	0xbdd35946	-0.10319762
71	0x3f61bda8	0.8818002
72	0xbd8d4132	-0.06897201
73	0x3f3b95cb	0.7327544
74	0x3f6ae4df	0.9175548
75	0x3f62d691	0.8860865
76	0x3f1d5dd0	0.6147127
77	0x3daec2ad	0.08533225
78	0x3fa425b9	1.2824012
79	0xbd3efd87	-0.0466285
80	0x3f93d757	1.1550092
81	0x3e86730c	0.2625965
82	0x3f8d7ad2	1.1053107
83	0x3fa77664	1.3083005
84	0x3f73ff42	0.9531137
85	0x3f758296	0.95902383
86	0x3fffd402	1.9986575
87	0x3fa4ad05	1.2865301
88	0x3f890c1d	1.0706822
89	0x3e9f7dd3	0.31150684
90	0x3fb3f374	1.4058671
91	0x3f73aeda	0.9518868
92	0x3f8f607f	1.1201323
93	0xbeaa37fd	-0.3324584
94	0xbf06355f	-0.5242519
95	0x3e8eb12b	0.27869543
96	0x3ec6762d	0.38762036
97	0x3f98b59a	1.193042
98	0x3ea0b3a9	0.3138707
99	0x3eaa38ef	0.33246562
100	0xbdcf9044	-0.10134938
101	0x3e985fde	0.2976064
102	0x3f96c9b3	1.1780304
103	0x3f397f03	0.7245943
104	0x3ea54ea3	0.32286558
105	0x3e85aeb8	0.26109862
106	0x3ebc6eb4	0.3680321
107	0x3f60004f	0.8750047
